…
Sun 02 Nov 2025 10:26:54 INFO DisenCDR(
  (source_specific_GNN): singleVBGE(
    (encoder): ModuleList(
      (0): DGCNLayer(
        (gc1): GCN(
          (gc): GraphConvolution()
          (leakyrelu): LeakyReLU(negative_slope=0.2)
        )
        (gc2): GCN(
          (gc): GraphConvolution()
          (leakyrelu): LeakyReLU(negative_slope=0.2)
        )
        (gc3): GCN(
          (gc): GraphConvolution()
          (leakyrelu): LeakyReLU(negative_slope=0.2)
        )
        (gc4): GCN(
          (gc): GraphConvolution()
          (leakyrelu): LeakyReLU(negative_slope=0.2)
        )
        (user_union): Linear(in_features=128, out_features=64, bias=True)
        (item_union): Linear(in_features=128, out_features=64, bias=True)
      )
      (1): LastLayer(
        (gc1): GCN(
          (gc): GraphConvolution()
          (leakyrelu): LeakyReLU(negative_slope=0.2)
        )
        (gc3_mean): GCN(
          (gc): GraphConvolution()
          (leakyrelu): LeakyReLU(negative_slope=0.2)
        )
        (gc3_logstd): GCN(
          (gc): GraphConvolution()
          (leakyrelu): LeakyReLU(negative_slope=0.2)
        )
        (user_union_mean): Linear(in_features=128, out_features=64, bias=True)
        (user_union_logstd): Linear(in_features=128, out_features=64, bias=True)
        (item_union_mean): Linear(in_features=128, out_features=64, bias=True)
        (item_union_logstd): Linear(in_features=128, out_features=64, bias=True)
      )
    )
  )
  (source_share_GNN): singleVBGE(
    (encoder): ModuleList(
      (0): DGCNLayer(
        (gc1): GCN(
          (gc): GraphConvolution()
          (leakyrelu): LeakyReLU(negative_slope=0.2)
        )
        (gc2): GCN(
          (gc): GraphConvolution()
          (leakyrelu): LeakyReLU(negative_slope=0.2)
        )
        (gc3): GCN(
          (gc): GraphConvolution()
          (leakyrelu): LeakyReLU(negative_slope=0.2)
        )
        (gc4): GCN(
          (gc): GraphConvolution()
          (leakyrelu): LeakyReLU(negative_slope=0.2)
        )
        (user_union): Linear(in_features=128, out_features=64, bias=True)
        (item_union): Linear(in_features=128, out_features=64, bias=True)
      )
      (1): LastLayer(
        (gc1): GCN(
          (gc): GraphConvolution()
          (leakyrelu): LeakyReLU(negative_slope=0.2)
        )
        (gc3_mean): GCN(
          (gc): GraphConvolution()
          (leakyrelu): LeakyReLU(negative_slope=0.2)
        )
        (gc3_logstd): GCN(
          (gc): GraphConvolution()
          (leakyrelu): LeakyReLU(negative_slope=0.2)
        )
        (user_union_mean): Linear(in_features=128, out_features=64, bias=True)
        (user_union_logstd): Linear(in_features=128, out_features=64, bias=True)
        (item_union_mean): Linear(in_features=128, out_features=64, bias=True)
        (item_union_logstd): Linear(in_features=128, out_features=64, bias=True)
      )
    )
  )
  (target_specific_GNN): singleVBGE(
    (encoder): ModuleList(
      (0): DGCNLayer(
        (gc1): GCN(
          (gc): GraphConvolution()
          (leakyrelu): LeakyReLU(negative_slope=0.2)
        )
        (gc2): GCN(
          (gc): GraphConvolution()
          (leakyrelu): LeakyReLU(negative_slope=0.2)
        )
        (gc3): GCN(
          (gc): GraphConvolution()
          (leakyrelu): LeakyReLU(negative_slope=0.2)
        )
        (gc4): GCN(
          (gc): GraphConvolution()
          (leakyrelu): LeakyReLU(negative_slope=0.2)
        )
        (user_union): Linear(in_features=128, out_features=64, bias=True)
        (item_union): Linear(in_features=128, out_features=64, bias=True)
      )
      (1): LastLayer(
        (gc1): GCN(
          (gc): GraphConvolution()
          (leakyrelu): LeakyReLU(negative_slope=0.2)
        )
        (gc3_mean): GCN(
          (gc): GraphConvolution()
          (leakyrelu): LeakyReLU(negative_slope=0.2)
        )
        (gc3_logstd): GCN(
          (gc): GraphConvolution()
          (leakyrelu): LeakyReLU(negative_slope=0.2)
        )
        (user_union_mean): Linear(in_features=128, out_features=64, bias=True)
        (user_union_logstd): Linear(in_features=128, out_features=64, bias=True)
        (item_union_mean): Linear(in_features=128, out_features=64, bias=True)
        (item_union_logstd): Linear(in_features=128, out_features=64, bias=True)
      )
    )
  )
  (target_share_GNN): singleVBGE(
    (encoder): ModuleList(
      (0): DGCNLayer(
        (gc1): GCN(
          (gc): GraphConvolution()
          (leakyrelu): LeakyReLU(negative_slope=0.2)
        )
        (gc2): GCN(
          (gc): GraphConvolution()
          (leakyrelu): LeakyReLU(negative_slope=0.2)
        )
        (gc3): GCN(
          (gc): GraphConvolution()
          (leakyrelu): LeakyReLU(negative_slope=0.2)
        )
        (gc4): GCN(
          (gc): GraphConvolution()
          (leakyrelu): LeakyReLU(negative_slope=0.2)
        )
        (user_union): Linear(in_features=128, out_features=64, bias=True)
        (item_union): Linear(in_features=128, out_features=64, bias=True)
      )
      (1): LastLayer(
        (gc1): GCN(
          (gc): GraphConvolution()
          (leakyrelu): LeakyReLU(negative_slope=0.2)
        )
        (gc3_mean): GCN(
          (gc): GraphConvolution()
          (leakyrelu): LeakyReLU(negative_slope=0.2)
        )
        (gc3_logstd): GCN(
          (gc): GraphConvolution()
          (leakyrelu): LeakyReLU(negative_slope=0.2)
        )
        (user_union_mean): Linear(in_features=128, out_features=64, bias=True)
        (user_union_logstd): Linear(in_features=128, out_features=64, bias=True)
        (item_union_mean): Linear(in_features=128, out_features=64, bias=True)
        (item_union_logstd): Linear(in_features=128, out_features=64, bias=True)
      )
    )
  )
  (share_GNN): crossVBGE(
    (encoder): ModuleList(
      (0): CrossDGCNLayer(
        (gc1): GCN(
          (gc): GraphConvolution()
          (leakyrelu): LeakyReLU(negative_slope=0.2)
        )
        (gc2): GCN(
          (gc): GraphConvolution()
          (leakyrelu): LeakyReLU(negative_slope=0.2)
        )
        (gc3): GCN(
          (gc): GraphConvolution()
          (leakyrelu): LeakyReLU(negative_slope=0.2)
        )
        (gc4): GCN(
          (gc): GraphConvolution()
          (leakyrelu): LeakyReLU(negative_slope=0.2)
        )
        (source_user_union): Linear(in_features=128, out_features=64, bias=True)
        (target_user_union): Linear(in_features=128, out_features=64, bias=True)
      )
      (1): CrossLastLayer(
        (gc1): GCN(
          (gc): GraphConvolution()
          (leakyrelu): LeakyReLU(negative_slope=0.2)
        )
        (gc3_mean): GCN(
          (gc): GraphConvolution()
          (leakyrelu): LeakyReLU(negative_slope=0.2)
        )
        (gc3_logstd): GCN(
          (gc): GraphConvolution()
          (leakyrelu): LeakyReLU(negative_slope=0.2)
        )
        (gc2): GCN(
          (gc): GraphConvolution()
          (leakyrelu): LeakyReLU(negative_slope=0.2)
        )
        (gc4_mean): GCN(
          (gc): GraphConvolution()
          (leakyrelu): LeakyReLU(negative_slope=0.2)
        )
        (gc4_logstd): GCN(
          (gc): GraphConvolution()
          (leakyrelu): LeakyReLU(negative_slope=0.2)
        )
        (source_user_union_mean): Linear(in_features=128, out_features=64, bias=True)
        (source_user_union_logstd): Linear(in_features=128, out_features=64, bias=True)
        (target_user_union_mean): Linear(in_features=128, out_features=64, bias=True)
        (target_user_union_logstd): Linear(in_features=128, out_features=64, bias=True)
      )
    )
  )
  (source_user_embedding): Embedding(6228, 64)
  (target_user_embedding): Embedding(6228, 64)
  (source_item_embedding): Embedding(10839, 64)
  (target_item_embedding): Embedding(26899, 64)
  (source_user_embedding_share): Embedding(6228, 64)
  (target_user_embedding_share): Embedding(6228, 64)
  (criterion): BCEWithLogitsLoss()
)
Trainable parameters: 4415360
Sun 02 Nov 2025 10:27:37 INFO 
============================== [Epoch 0] Training Summary ==============================
⏱  Time used: 42.33s
📉 Total Loss: 5377.1102
==========================================================================================
Sun 02 Nov 2025 10:27:40 INFO 
============================== [Epoch 0] Validation Summary ==============================
…
